redfin/proprietary/system_ext/etc/perf/wlc_model.tflite (tflite, 92060 bytes, 7 tensors)

dense/MatMul_bias f4 [100]
-0.2270024 -0.07693722 -0.030439053 -0.1788885 -0.06802751 -0.059434097 0.052088667 -0.12409857
-0.028771196 -0.0823282 -0.1005922 -0.013204444 0.0034740362 -0.07938935 -0.08093576 -0.07114524
-0.12354129 0.04514063 -0.15288232 -0.04047159 -0.05483587 -0.017461812 -0.18800858 -0.1362419
-0.06648281 -0.046043444 -0.14726286 -0.21421926 -0.25078303 -0.06941617 0.01995025 -0.11350062
-0.08349932 -0.0025563955 -0.062067196 -0.09128345 -0.099499695 -0.024188774 -0.2721697 -0.20335576
-0.009175764 -0.1269906 -0.048682235 -0.13738006 -0.04002212 -0.054352522 -0.025745586 -0.03638999
-0.069759406 -0.21161436 -0.15229681 0.010612909 -0.015742712 -0.11996862 -0.1050359 -0.24890229
-0.12641783 -0.16312875 -0.009877195 -0.1675544 -0.21284816 -0.24161226 -0.10705397 -0.019920923
-0.065816335 -0.006805454 0.041005332 -0.0610868 -0.18592538 -0.19055627 -0.1391338 0.021946792
-0.06322949 -0.029356796 -0.024439318 -0.19541726 -0.09350485 -0.086278245 -0.24118853 -0.18343686
-0.1328196 -0.011599803 -0.027267834 -0.1578723 -0.16199283 -0.014535904 0.067503884 -0.17163895
-0.08253429 -0.16756766 -0.037610628 0.029815987 -0.13523203 -0.07398691 -0.094836995 -0.026871655
-0.016452732 0.03587465 -0.03980519 -0.03775525
00000000: 5173 68be 4391 9dbd 525b f9bc 8c2e 37be
00000010: 0252 8bbd 2b71 73bd ed5a 553d 6427 febd
00000020: 92b1 ebbc b09b a8bd 4903 cebd 7457 58bc
00000030: a8ac 633b e296 a2bd a6c1 a5bd 98b4 91bd
00000040: 3703 fdbd 62e5 383d 2f8d 1cbe 8ac5 25bd
00000050: 949b 60bd 130c 8fbc 5285 40be ff82 0bbe
00000060: 2428 88bd 0d98 3cbd 13cc 16be 4b5c 5bbe
00000070: a266 80be 112a 8ebd b56e a33c 0373 e8bd
00000080: b101 abbd 3389 27bb 2c3a 7ebd d1f2 babd
00000090: 7fc6 cbbd 8927 c6bc d459 8bbe 7e3c 50be
000000a0: f255 16bc d309 02be 0667 47bd 5cad 0cbe
000000b0: 3cee 23bd c0a0 5ebd 68e8 d2bc ac0d 15bd
000000c0: 05de 8ebd 6fb1 58be b2f3 1bbe c4e1 2d3c
000000d0: dcf6 80bc 1cb2 f5bd 101d d7bd 3ee0 7ebe
000000e0: ad73 01be 390b 27be f5d3 21bc 6193 2bbe
000000f0: def4 59be 3469 77be 1d3f dbbd 3431 a3bc
00000100: b7ca 86bd 4900 dfbb 35f5 273d 2736 7abd
00000110: 3963 3ebe 2f21 43be 1779 0ebe c2c9 b33c
00000120: 767e 81bd aa7d f0bc f734 c8bc 761b 48be
00000130: 797f bfbd a6b2 b0bd 20fa 76be dfd6 3bbe
00000140: dc01 08be 1a0d 3ebc cb60 dfbc 47a9 21be
00000150: 73e1 25be 0028 6ebc 7a3f 8a3d 1fc2 2fbe
00000160: bd07 a9bd db96 2bbe 9a0d 1abd a840 f43c
00000170: 447a 0abe 7386 97bd e639 c2bd f221 dcbc
00000180: e1c7 86bc 4cf1 123d c40a 23bd 40a5 1abd

dense/kernel/transpose f4 [100, 22]
-0.10165007 -0.7018436 0.6602787 -0.22115663 -0.2636359 -0.0156736 -0.36339888 -0.27032006
-0.17163913 0.15979673 -1.3405924 0.31346828 -0.06580137 0.3467919 0.47484764 0.13614039
0.03901068 -0.13741924 -0.093288794 -0.15096194 0.15294881 -0.0022088657 -0.48011354 0.010560265
-0.062029738 -0.6322794 -0.26934487 0.7678336 -0.09938713 -0.6292687 -0.095238 0.57979804
0.08521085 -0.8779144 -0.40595084 -0.5869746 -0.8284546 0.080218725 0.09954609 -0.30463314
0.21430004 0.04256782 0.14789146 0.108266756 -0.47254977 0.7060852 -0.1586255 -0.22502702
-0.2651552 -0.22856495 0.01223231 0.05203996 -0.29695654 -0.1195811 0.5054748 -0.23679693
-0.38284034 -0.08353998 0.27361766 -0.0017651044 0.2478383 -0.21909115 -0.096660286 0.0868421
-0.20520158 0.15101299 0.38584968 -0.6365828 0.9386207 0.04108784 0.20447849 -0.5114814
-0.40386963 0.2531479 -0.010111057 -0.86132044 -1.6221129 0.11148549 0.22357981 -0.05148073
0.2254296 -0.05309845 -0.06595189 0.03773926 0.08430164 0.043750644 0.015485011 -0.032222908
-0.10550005 0.383867 -1.3131857 -0.40044025 -0.19741285 -0.64153475 -0.041287635 -0.33450916
0.05672529 -0.6224502 0.38395306 -0.31330958 0.019024955 0.32725286 -0.22777085 0.15496399
-0.14408898 -0.30739513 0.009906907 -0.1839829 -0.26053268 0.14859726 -0.6967634 0.24060042
-1.2800548 -0.065877445 -0.264307 -0.40195736 0.0030574745 -0.14394648 -0.054953035 0.0574905
0.43854234 -0.48896965 -0.37365815 -0.23785672 -0.42232385 -0.041318733 0.5197498 0.0010106293
0.2641428 -0.060739156 0.11402265 0.04290259 -1.5385708 0.024780793 -0.14676498 -1.6445296
0.09822865 -0.48180106 0.026179878 -0.2614257 0.10787442 -0.46038753 0.5188507 -1.4139985
-1.0681075 -0.4864166 -0.101961665 -0.19749612 0.15049005 0.1158327 0.028881807 -0.21990292
-0.2557047 -0.09741053 0.16220164 0.12904483 1.9059435 0.24316782 -0.08878465 -0.1950006
-0.15740076 0.21135277 -0.3231855 -0.06863184 -0.71445763 -0.19097826 -0.14680448 -0.38399872
-0.32030168 -0.309768 0.12718272 0.16126487 0.034519304 0.34070885 0.36835682 -0.19888233
0.28531203 -0.34309936 0.32922485 0.46775472 0.19843426 -0.7083497 -0.87644184 -0.19550629
-0.33408743 -0.47997308 -1.3148061 -0.0982453 0.11528097 -0.028908944 0.003176869 -0.029047033
-0.18437153 0.19788441 0.099583566 0.108032726 0.08065389 -0.07180064 -0.87721246 0.5490916
-0.14054213 -0.7826592 -0.096500695 -0.012565033 0.17058416 -0.20989646 0.16108063 -0.8220495
1.1894693 -0.07577472 0.19199061 -0.6907101 -0.023403665 0.13540335 0.40271777 -0.36291793
-0.079260014 0.14317036 0.010514218 0.12559344 -0.511405 0.747996 0.17813045 -0.92816705
-0.1034324 0.021292867 -0.0675397 -0.18651006 0.09292852 -1.1996417 0.97720075 0.0014278631
0.23564464 -0.5634159 -0.018225532 0.050750047 0.43705824 -0.3493071 -0.0405033 0.10851263
-0.053068213 0.12050505 -1.3315555 0.5028451 -1.1004567 -0.86608243 0.057565603 0.5993062
0.54285544 -0.16696276 -0.053040758 0.29585764 0.8874598 -0.56805086 -0.06351518 -0.32499874
00000000: e92d d0bd 06ac 33bf 0608 293f e276 62be
00000010: 49fb 86be ec65 80bc 6b0f babe 6467 8abe
00000020: 2bc2 2fbe c1a1 233e 8898 abbf ea7e a03e
00000030: dec2 86bd b58e b13e 3b1f f33e 6368 0b3e
00000040: aac9 1f3d a1b7 0cbe 320e bfbd c495 1abe
00000050: 9d9e 1c3e 9ec2 10bb 71d1 f5be f604 2d3c
00000060: e512 7ebd 10dd 21bf 92e7 89be be90 443f
00000070: 7b8b cbbd c117 21bf 240c c3bd a56d 143f
00000080: 0783 ae3d 00bf 60bf cad8 cfbe f843 16bf
00000090: 9a15 54bf b749 a43d d2de cb3d e0f8 9bbe
000000a0: 7871 5b3e 985b 2e3d dc70 173e f6ba dd3d
000000b0: 0bf2 f1be 00c2 343f b96e 22be 7c6d 66be
000000c0: 6cc2 87be ee0c 6abe 076a 483c da27 553d
000000d0: b00a 98be f0e6 f4bd cc66 013f e57a 72be
000000e0: a603 c4be 0217 abbd 9d17 8c3e 135b e7ba
000000f0: 53c9 7d3e 6e59 60be d4f5 c5bd 45da b13d
00000100: 5d20 52be 26a3 1a3e 178e c53e 17f7 22bf
00000110: 7249 703f b94b 283d cf62 513e 72f0 02bf
00000120: 00c8 cebe 9a9c 813e d9a8 25bc 7f7f 5cbf
00000130: 65a1 cfbf 8152 e43d 1bf2 643e 75dd 52bd
00000140: 04d7 663e c37d 59bd c911 87bd 7b94 1a3d
00000150: 57a6 ac3d e033 333d d8b4 7d3c 2bfc 03bd
00000160: 6910 d8bd 378a c43e 7816 a8bf 8106 cdbe
00000170: 9826 4abe 9f3b 24bf 391d 29bd c944 abbe
00000180: c758 683d e558 1fbf 7f95 c43e 1d6a a0be
00000190: 39da 9b3c b08d a73e c33c 69be e1ae 1e3e
000001a0: 108c 13be e562 9dbe 9450 223c 0366 3cbe
000001b0: 8a64 85be e129 183e 165f 32bf f55f 763e
000001c0: d6d8 a3bf c1ea 86bd 3f53 87be 5bcd cdbe
000001d0: e95f 483b b566 13be 6f16 61bd 297b 6b3d
000001e0: 9f88 e03e 3b5a fabe 1f50 bfbe b690 73be
000001f0: d53a d8be d53d 29bd 530e 053f 1877 843a
00000200: ba3d 873e 9fc9 78bd b584 e93d a0ba 2f3d
00000210: e3ef c4bf 1701 cb3c 8f49 16be f27f d2bf
00000220: 1a2c c93d a1ae f6be 2f77 d63c 97d9 85be
00000230: 44ed dc3d eab7 ebbe 66d3 043f e7fd b4bf
00000240: bfb7 88bf 990b f9be 47d1 d0bd 6c3c 4abe
00000250: 101a 1a3e b239 ed3d 8a99 ec3c 3b2e 61be
00000260: baeb 82be 2c7f c7bd 3018 263e 5424 043e
00000270: f5f5 f33f fc00 793e bad4 b5bd 3dae 47be
00000280: aa2d 21be dc6c 583e 9278 a5be da8e 8cbd
00000290: b2e6 36bf ce8f 43be ea53 16be 7b9b c4be
000002a0: 95fe a3be e999 9ebe 303c 023e 9e22 253e
000002b0: 1d64 0d3d 6471 ae3e 4499 bc3e cfa7 4bbe
000002c0: 6b14 923e b8aa afbe 2990 a83e 8c7d ef3e
000002d0: 5a32 4b3e 6856 35bf 7e5e 60bf cd32 48be
000002e0: 820d abbe 08bf f5be 914b a8bf d534 c9bd
000002f0: 6e18 ec3d 73d2 ecbc 0433 503b 0bf4 edbc
00000300: e4cb 3cbe 36a2 4a3e 78f2 cb3d 4340 dd3d
00000310: de2d a53d 370c 93bd ff90 60bf 4491 0c3f
00000320: 47ea 0fbe 5a5c 48bf 28a2 c5bd 91dd 4dbc
00000330: 9dad 2e3e 19ef 56be 52f2 243e d671 52bf
00000340: 8840 983f c72f 9bbd 3099 443e 61d2 30bf
00000350: 0bb9 bfbc 2da7 0a3e 0631 ce3e 61d0 b9be
00000360: 1353 a2bd 409b 123e d443 2c3c 919b 003e
00000370: 70eb 02bf aa7c 3f3f d467 363e 5b9c 6dbf
00000380: 5ed4 d3bd 616e ae3c 4152 8abd 7efc 3ebe
00000390: 4f51 be3d dc8d 99bf d429 7a3f 2327 bb3a
000003a0: d44c 713e 063c 10bf b64d 95bc 48df 4f3d
000003b0: 19c6 df3e 61d8 b2be cae6 25bd df3b de3d
000003c0: 0e5e 59bd 5acb f63d 6970 aabf 75ba 003f
000003d0: c4db 8cbf 94b7 5dbf e9c9 6b3d 226c 193f
000003e0: 93f8 0a3f 49f8 2abe 4441 59bd a77a 973e
000003f0: 9130 633f c86b 11bf 3f14 82bd 3c66 a6be

dense_1/MatMul_bias f4 [100]
-0.005199207 0.072704956 0.001132703 0.039983682 -0.035958745 0.006007527 0.07035903 0.021954434
0.072282255 0.026314767 0.027279682 0.040592022 0.01062342 0.045774896 -0.009437503 0.060553864
0.012384337 0.041107982 -0.13674155 0.048596494 0.0067767217 -0.026824333 0.021757914 0.027444636
-0.055292368 -0.0028054726 0.038352706 0.0036289669 0.030619193 0.07192306 -0.008720567 0.0012925514
0.08419173 0.028379776 0.010912061 0.021361997 0.011416683 -0.020943958 -0.023325669 0.0715493
0.023216115 -0.020254264 0.05712312 -0.054686002 0.0043905666 0.0053619538 0.013351451 -0.0012501893
0.016029902 -0.06732402 -0.0085249785 0.032374624 0.026321523 -0.007414279 -0.037886743 0.041813258
0.0689376 0.044138506 0.05417776 -0.016131548 0.017035527 -0.014442446 -0.07611709 -0.0055774134
0.0054542855 -0.032046612 -0.0016004436 -0.023124326 0.0038822298 0.024252197 0.04390397 0.0049745385
-0.0185929 0.028074482 0.0465142 0.009265667 0.013750383 -0.015881635 0.035628937 -0.031788174
-0.023507653 -0.020118741 0.0344223 0.06543096 0.017192833 -0.34360474 0.0038095284 -0.07071823
0.056765407 0.022948094 0.026704058 -0.07659166 0.030720212 0.059384733 0.047043487 -0.15818636
-0.0024602804 0.026493108 -0.048577983 0.005834633
00000000: 1c5e aabb 56e6 943d 3577 943a eec5 233d
00000010: 7a49 13bd cada c43b 6518 903d c9d9 b33c
00000020: b808 943d 1192 d73c a479 df3c d243 263d
00000030: da0d 2e3c 757e 3b3d c29f 1abc 5407 783d
00000040: ade7 4a3c d860 283d fa05 0cbe 1e0d 473d
00000050: 430f de3b b4be dbbc a73d b23c 93d3 e03c
00000060: 407a 62bd 05dc 37bb ba17 1d3d f6d3 6d3b
00000070: 1ad5 fa3c 664c 933d b6e0 0ebc d46a a93a
00000080: b76c ac3d b47c e83c 80c8 323c 5bff ae3c
00000090: 0a0d 3b3c aa92 abbc 7915 bfbc 7088 923d
000000a0: b92f be3c 45ec a5bc eff9 693d 6efe 5fbd
000000b0: bede 8f3b 54b3 af3b 0bc0 5a3c 64dd a3ba
000000c0: 2451 833c 2de1 89bd 5aac 0bbc 419b 043d
000000d0: 3ca0 d73c 7bf3 f2bb 212f 1bbd 6144 2b3d
000000e0: 282f 8d3d 94ca 343d 80e9 5d3d 4f26 84bc
000000f0: 178e 8b3c 02a0 6cbc 47e3 9bbd bcc2 b6bb
00000100: ddb9 b23b 4f43 03bd fac5 d1ba 3a6f bdbc
00000110: 026d 7e3b 8bac c63c a6d4 333d 7401 a33b
00000120: 2350 98bc 75fc e53c ac85 3e3d 06cf 173c
00000130: 4949 613c 341a 82bc a6ef 113d 5134 02bd
00000140: 1f93 c0bc 0fd0 a4bc 66fe 0c3d ab00 863d
00000150: fcd7 8c3c f6ec afbe 48a9 793b b8d4 90bd
00000160: d882 683d a4fd bb3c 78c2 da3c 17dc 9cbd
00000170: f4a8 fb3c 683d 733d acb0 403d 9bfb 21be
00000180: a83c 21bb 1308 d93c b5f9 46bd 7330 bf3b

dense_1/kernel/transpose f4 [100, 100]
0.97628576 -0.35052586 -0.013229697 0.292925 -0.17590494 -0.24438259 -0.19963275 0.84377176
0.0075222338 -0.18697084 -0.31408876 -0.0989365 -0.29813358 -0.16181222 0.25460118 -0.26588
-0.25253063 -0.08174731 -0.3099401 0.30253088 0.2882213 0.0040057264 -0.20561124 0.20806561
-0.44018522 -0.10336092 -0.20259203 0.24410683 0.7222513 -0.04044268 -0.46665365 0.26922682
-0.041044954 -0.20399521 0.28262302 0.0388651 0.18613586 0.07863908 -0.31075498 0.14814623
-0.15913999 0.23174167 0.25457036 -0.0016619046 0.27433857 0.07918869 0.01624154 -0.3042005
0.13305087 0.49389306 -0.12726553 -0.17476325 -0.028194662 0.4066358 -0.30326268 0.35961375
-0.10712575 -0.35241333 0.0472599 0.2266663 -0.11751326 0.024348792 0.41080034 -0.14304946
0.045531604 0.0026312447 0.040767968 -0.023996113 0.11395001 -0.048471376 0.3237674 0.08703672
-0.40160522 0.08889536 0.039979327 -0.04830245 -0.114993475 0.043141153 0.004139417 -0.13104023
0.051617954 -0.3034702 0.3721477 -0.15361656 -0.28454217 -0.10538689 0.08014545 0.5725104
-0.016100533 -0.068019815 -0.28302193 -0.070413694 0.10520634 -0.27990535 -0.10540155 0.025869407
-0.0051008402 0.029180078 -0.15833692 -0.01226664 0.85446817 -0.4053835 -0.12970357 -0.39131802
-0.34871832 -0.2371482 -0.40497905 1.0515271 0.14626773 -0.3031123 -0.4500659 -0.15069926
-0.32933918 -0.17196582 0.17321351 -0.33965623 -0.34859136 0.18849836 -0.1766066 0.15228526
0.20202544 -0.15101534 -0.016473878 0.17439924 -0.19160049 0.008667426 -0.09521072 0.16710769
0.79757154 -0.09744003 -0.2654158 0.33582005 0.015294495 -0.027024435 0.38995016 0.11771427
0.2031598 -0.009322067 -0.43342936 0.033058006 -0.446374 0.18614648 -0.02134634 0.08583717
0.11347876 0.16810767 0.25322327 -0.023653483 -0.1629728 0.5158605 -0.21321803 0.038237013
0.12034416 0.59711796 -0.2755397 0.66033894 -0.3191524 -0.46121734 0.08309806 -0.028083779
0.16061066 -0.0238083 0.1249632 -0.44566187 0.016609756 -0.27533463 0.04400618 -0.22198035
0.2532061 -0.041500304 0.24091245 -0.06550012 -0.3014773 -0.050564166 0.06485749 -0.2364058
-0.16237651 -0.06638278 0.07114296 -0.29220042 0.13770199 -0.21560708 0.053307164 -0.29977378
-0.39589584 -0.16593452 -0.2034577 0.5908701 0.1585555 -0.10698107 0.0054631634 0.084611535
0.13964741 -0.47196856 -0.09349699 0.25681463 -0.24193305 0.119875416 -0.387944 -0.3078838
0.6886703 -0.33027726 -0.4902581 0.0636802 0.0948038 -0.37617967 -0.11045938 1.007319
0.18163148 -0.5075005 -0.28415933 -0.34885666 0.13308252 -0.2144919 0.36581537 -0.5758024
-0.18266705 0.120724216 -0.37176523 0.508735 -0.078700475 -0.09644083 -0.32799318 0.32858205
-0.50539297 0.055505563 -0.26003948 0.16925992 0.20899817 -0.24126618 0.15042149 0.33406997
0.12934244 -0.1520665 0.22429001 -0.067202464 -0.04346163 0.09566418 -0.6173112 0.036096375
-0.18860354 -0.06290249 0.32985237 0.0140477065 0.25064567 -0.21201168 -0.02967674 -0.4423891
-0.03176274 0.41523445 -0.2665331 0.014682652 0.35903406 0.23135585 -0.29082644 0.63849366
00000000: dded 793f 2078 b3be 5fc1 58bc 44fa 953e
00000010: 6d20 34be 6e3f 7abe 876c 4cbe 6d01 583f
00000020: 127d f63b 4975 3fbe 3ed0 a0be 389f cabd
00000030: f7a4 98be 1ab2 25be 165b 823e 6c21 88be
00000040: b24b 81be 226b a7bd 78b0 9ebe 54e5 9a3e
00000050: be91 933e 7842 833b c18b 52be 270f 553e
00000060: f55f e1be e4ae d3bd 4974 4fbe 24f7 793e
00000070: 76e5 383f 39a7 25bd 3aed eebe 19d8 893e
00000080: c11e 28bd 1fe4 50be f7b3 903e 0331 1f3d
00000090: 669a 3e3e 870d a13d 471b 9fbe a5b3 173e
000000a0: 98f5 22be b04d 6d3e 0c57 823e 44d4 d9ba
000000b0: 1b76 8c3e ae2d a23d fa0c 853c 2bc0 9bbe
000000c0: 7d3e 083e 8ddf fc3e e551 02be 23f5 32be
000000d0: 7ef8 e6bc 9132 d03e 3f45 9bbe 4b1f b83e
000000e0: bf64 dbbd 856f b4be 9993 413d 361b 683e
000000f0: cbaa f0bd 1e77 c73c 6c54 d23e 8f7b 12be
00000100: 597f 3a3d f670 2c3b 50fc 263d 7f93 c4bc
00000110: 9f5e e93d ec89 46bd d7c4 a53e 4f40 b23d
00000120: 339f cdbe c50e b63d 5dc1 233d cad8 45bd
00000130: b381 ebbd c7b4 303d f2a3 873b 692f 06be
00000140: 596d 533d 7260 9bbe 258a be3e a94d 1dbe
00000150: 83af 91be 15d5 d7bd 4c23 a43d 0b90 123f
00000160: 44e5 83bc f94d 8bbd 40e8 90be 0e35 90bd
00000170: 6c76 d73d c14f 8fbe c5dc d7bd 14ec d33c
00000180: f324 a7bb 0f0b ef3c 1323 22be 04fa 48bc
00000190: 6dbe 5a3f 6d8e cfbe 03d1 04be d65a c8be
000001a0: 358b b2be fad6 72be 6a59 cfbe 7198 863f
000001b0: 35c7 153e 8931 9bbe 0a6f e6be e850 1abe
000001c0: 259f a8be cf17 30be e25e 313e 6ce7 adbe
000001d0: 917a b2be b705 413e 5cd8 34be abf0 1b3e
000001e0: c2df 4e3e c4a3 1abe 3af4 86bc b795 323e
000001f0: eb32 44be d201 0e3c d7fd c2bd 471e 2b3e
00000200: a62d 4c3f a38e c7bd 94e4 87be 9bf0 ab3e
00000210: c395 7a3c 5962 ddbc 8ca7 c73e 2e14 f13d
00000220: 1f09 503e 95bb 18bc 74ea ddbe d567 073d
00000230: 228b e4be 2f9d 3e3e 85de aebc 66cb af3d
00000240: 8d67 e83d 6b24 2c3e 7ba6 813e f3c4 c1bc
00000250: 57e2 26be 6f0f 043f d455 5abe 6a9e 1c3d
00000260: 0077 f63d b9dc 183f 8a13 8dbe f90b 293f
00000270: f267 a3be ae24 ecbe 512f aa3d f40f e6bc
00000280: 1f77 243e a009 c3bc b5ec ff3d cb2d e4be
00000290: 2f11 883c a9f8 8cbe d33f 343d d14e 63be
000002a0: 3ba4 813e 39fc 29bd c1b1 763e ed24 86bd
000002b0: 3c5b 9abe 5f1c 4fbd 01d4 843d 5d14 72be
000002c0: 0746 26be b2f3 87bd 66b3 913d 4b9b 95be
000002d0: c001 0d3e 1ac8 5cbe 9d58 5a3d f37b 99be
000002e0: dcb2 cabe bdea 29be 3757 50be 4343 173f
000002f0: 5f5c 223e e418 dbbd 5604 b33b d048 ad3d
00000300: bbff 0e3e dda5 f1be 5a7b bfbd 357d 833e
00000310: 4cbd 77be 3e81 f53d 99a0 c6be f2a2 9dbe
00000320: b24c 303f 1a1a a9be 1c03 fbbe c46a 823d
00000330: 7f28 c23d 9f9a c0be 8738 e2bd d4ef 803f
00000340: 9afd 393e 8eeb 01bf 557d 91be 579d b2be
00000350: c946 083e c4a3 5bbe 274c bb3e c967 13bf
00000360: 120d 3bbe 423e f73d 0358 bebe 753c 023f
00000370: b72d a1bd c582 c5bd b9ee a7be e83b a83e
00000380: 6f61 01bf cd59 633d e523 85be 7952 2d3e
00000390: 9e03 563e 7b0e 77be 1708 1a3e 380b ab3e
000003a0: 5872 043e 52b7 1bbe 48ac 653e 72a1 89bd
000003b0: d204 32bd 95eb c33d 1b08 1ebf cbd9 133d
000003c0: 4921 41be 05d3 80bd 69e2 a83e 5a28 663c
000003d0: a154 803e 9719 59be a21c f3bc d380 e2be
000003e0: a619 02bd 9c99 d43e 0777 88be 828f 703c
000003f0: 50d3 b73e 8ce8 6c3e 34e7 94be 5274 233f

dense_2/MatMul_bias f4 [100]
0.6687097 0.39676666 0.2444535 0.54615873 0.36840007 0.52206117 0.57593685 0.21946782
0.5365379 0.027306788 0.48550168 0.27823594 0.58702874 0.5433271 0.54645634 0.30868867
0.17245622 0.47841758 0.33403456 0.17083474 -0.0052299523 0.1895132 0.2422849 0.42151478
0.1254782 0.096597336 0.41466653 0.7174278 0.20473428 0.09965133 0.030547582 0.38481945
-0.0005552301 -0.12365713 -0.0070930077 -0.009840689 0.35688832 0.3458118 0.027634561 0.40548697
0.5515714 0.46272442 0.33249632 -0.28049153 0.4461253 0.341473 0.23623921 0.6496092
0.6130189 0.6221805 0.623833 0.47055733 0.63737494 0.62300026 0.49192178 0.45563886
-0.10481094 0.4930742 0.32932967 0.21444616 0.14072911 0.67626846 0.17717344 -0.5268401
0.34286144 0.21609305 0.1787907 0.020485427 0.7117196 0.461647 0.12614216 0.6264241
0.44035247 0.6462063 0.5007758 0.07615079 0.4705537 0.7356094 0.09574511 0.33494395
0.03382164 0.5668793 -0.13017209 0.17020927 0.3032793 0.140401 0.6154426 0.26161903
0.33034486 0.69106036 0.39363402 0.17728192 0.45255435 0.32331893 0.09198202 0.62389964
0.59320104 0.33488676 0.5487142 0.6276288
00000000: 8f30 2b3f 0025 cb3e 0552 7a3e 0fd1 0b3f
00000010: ef9e bc3e cda5 053f 9970 133f 2cbc 603e
00000020: 8c5a 093f 7cb2 df3c ad93 f83e f174 8e3e
00000030: 8447 163f 7c17 0b3f 90e4 0b3f 710c 9e3e
00000040: 5d98 303e 26f3 f43e 9406 ab3e 4def 2e3e
00000050: 0560 abbb c00f 423e 8819 783e c9d0 d73e
00000060: 5b7d 003e d3d4 c53d 2c4f d43e 59a9 373f
00000070: dda5 513e ff15 cc3d ec3e fa3c 0e07 c53e
00000080: dc8c 11ba f33f fdbd 766c e8bb d73a 21bc
00000090: 11ba b63e 3f0e b13e e061 e23c fd9b cf3e
000000a0: c933 0d3f 37ea ec3e f53c aa3e 969c 8fbe
000000b0: 896a e43e 8dd5 ae3e b1e8 713e ca4c 263f
000000c0: ceee 1c3f 3947 1f3f 85b3 1f3f e4ec f03e
000000d0: 012b 233f f27c 1f3f 2cdd fb3e 7f49 e93e
000000e0: 1ea7 d6bd 3974 fc3e e69d a83e c697 5b3e
000000f0: 4b1b 103e ee1f 2d3f f46c 353e fede 06bf
00000100: 898b af3e 7f47 5d3e e914 373e 0ed1 a73c
00000110: 4133 363f ff5c ec3e 692b 013e 545d 203f
00000120: e175 e13e c76d 253f d832 003f f2f4 9b3d
00000130: 6aec f03e e650 3c3f 0316 c43d c67d ab3e
00000140: 8f88 0a3d 001f 113f d54b 05be 574b 2e3e
00000150: 6d47 9b3e 48c5 0f3e a58d 1d3f eef2 853e
00000160: f622 a93e 55e9 303f 668a c93e 6489 353e
00000170: 34b5 e73e 0f8a a53e 1261 bc3d e3b7 1f3f
00000180: 06dc 173f 4776 ab3e 8978 0c3f 48ac 203f

dense_2/kernel/transpose f4 [100, 100]
-0.1890907 0.07365446 0.20864889 -0.29739276 -2.1839842e-05 0.025613174 -0.2160449 0.09912869
-0.3521875 0.092490025 -0.23114997 -0.12139962 -0.4388429 -0.07362719 0.13275546 -0.3489451
0.24077386 -0.27151012 0.2179375 -0.36747724 -0.044198617 -0.08845244 0.020263057 -0.33334962
0.118734635 -0.0062992363 -0.15067835 0.16069716 -0.075929485 -0.20322655 0.19938305 -0.15206084
-0.098569565 0.057242304 0.09865964 -0.027550463 -0.17606656 0.061398584 -0.002829682 -0.045948625
-0.08029551 0.059090283 -0.22789125 -0.1995769 -0.077600695 -0.33593515 -0.18519297 -0.30311376
-0.14122726 0.13755882 0.05171401 -0.13388635 0.052538168 -0.023657765 0.16315846 -0.35093716
-0.25011304 0.22599064 -0.28417927 -0.26651195 -0.08660421 0.033212308 -0.05744504 -0.041843478
-0.2004727 0.01248911 0.17257003 -0.2788024 0.13897322 0.007923339 -0.08012923 0.1347867
-0.05575833 -0.34096983 -0.053377412 0.03511742 0.27637446 0.11822089 -0.013103434 0.16819158
0.14856632 0.27098683 -0.49760342 -0.2621412 0.056128535 0.036691293 -0.29933745 0.0971082
0.14094438 -0.2814679 -0.45628744 -0.060501277 0.18198694 -0.10940799 -0.32377306 0.10244477
-0.21736057 -0.32529554 -0.06946332 -0.1838765 -0.22353588 -0.2853109 -0.32261738 -0.03027904
-0.3244986 -0.4876579 -0.08735322 -0.46162513 0.07683554 -0.2953772 0.01962492 -0.061197817
0.021692371 -0.1665996 -0.12913667 0.12568122 -0.10837559 0.030172842 -0.23366173 -0.079273805
-0.2835592 0.12916781 -0.25126404 0.011985934 -0.26055753 -0.4531204 -0.03682375 -0.23221655
-0.27891314 0.0951538 -0.36050215 -0.049255844 0.1661118 -0.27045658 -0.14864606 -0.3020062
-0.07612813 -0.03803423 -0.41328457 -0.1518564 0.07257814 -0.31526318 -0.062272545 0.17374077
-0.09515149 -0.06021423 0.14460741 0.033278584 -0.1459937 -0.2212875 -0.14309476 0.13316754
0.025037339 -0.47270203 -0.20689502 0.16533017 0.2338355 -0.4498734 0.05784903 0.16403967
-0.25431708 -0.0077397963 -0.156921 -0.06299466 -0.21928887 -0.2613357 0.13105969 -0.074182585
-0.15964673 -0.24873494 -0.29616556 -0.2541029 -0.12623012 0.123268604 0.20147607 -0.116558544
-0.09537741 -0.30498135 -0.14710914 -0.2661138 -0.31661305 0.08233745 -0.09336476 -0.08878522
0.029705005 -0.1419632 0.0041045626 -0.14610884 -0.38064697 -0.030912362 -0.22069477 0.08187302
-0.41382998 0.12556458 0.12592034 -0.5276359 0.12061688 -0.005652983 -0.12504281 -0.13377278
0.20980929 0.12919874 -0.08303359 -0.58051187 -0.037161134 -0.1942818 -0.3006772 -0.31837252
-0.40079713 -0.39250666 -0.2581476 -0.13190731 -0.2719661 -0.090562925 -0.30516183 -0.20830858
-0.06468185 -0.40109712 0.12941861 -0.25600067 0.009554868 0.22055031 0.05657412 -0.4552934
0.067149185 0.06691669 -0.29142347 -0.1492255 -0.1946921 -0.18891798 0.18516003 -0.35611272
-0.37346625 0.00078277505 0.047429945 0.2981709 -0.280516 -0.02469772 -0.075843945 -0.15931967
-0.11536778 -0.033082873 -0.6137205 -0.23093519 -0.43662423 -0.27514565 -0.38636327 -0.08692927
-0.36826015 0.032541454 0.00429552 -0.09778976 0.03061344 0.039643064 0.10669656 -0.102235176
00000000: fea0 41be 26d8 963d 0ea8 553e dd43 98be
00000010: b434 b7b7 b8d2 d13c e03a 5dbe fc03 cb3d
00000020: ec51 b4be 696b bd3d 94b2 6cbe 5da0 f8bd
00000030: 04b0 e0be dac9 96bd 0cf1 073e efa8 b2be
00000040: 6c8d 763e 6003 8bbe 022b 5f3e fa25 bcbe
00000050: 9c09 35bd 8e26 b5bd b6fe a53c cdac aabe
00000060: 252b f33d d369 cebb 6d4b 1abe cc8d 243e
00000070: eb80 9bbd 9f1a 50be 122b 4c3e d6b5 1bbe
00000080: d7de c9bd e876 6a3d 110e ca3d 82b1 e1bc
00000090: cb4a 34be 157d 7b3d 3072 39bb a034 3cbd
000000a0: f971 a4bd a708 723d 535c 69be e35d 4cbe
000000b0: 1ded 9ebd b1ff abbe 3aa3 3dbe ba31 9bbe
000000c0: e19d 10be 38dc 0c3e 12d2 533d 8119 09be
000000d0: 4332 573d eecd c1bc 0313 273e 09ae b3be
000000e0: d10e 80be 176a 673e f27f 91be 4174 88be
000000f0: 8c5d b1bd a109 083d 7e4b 6bbd 1164 2bbd
00000100: b748 4dbe 209f 4c3c 33b6 303e 30bf 8ebe
00000110: ff4e 0e3e e4d0 013c cb1a a4bd 8605 0a3e
00000120: d962 64bd 9993 aebe 46a2 5abd 49d7 0f3d
00000130: f480 8d3e cb1d f23d c9af 56bc 6a3a 2c3e
00000140: c521 183e c9be 8a3e e0c5 febe 5f37 86be
00000150: 09e7 653d 9c49 163d c242 99be aae0 c63d
00000160: b953 103e 901c 90be 829e e9be 30d0 77bd
00000170: c95a 3a3e 4c11 e0bd 95c5 a5be 90ce d13d
00000180: c593 5ebe 238d a6be c942 8ebd 1f4a 3cbe
00000190: 97e6 64be 4514 92be 1b2e a5be c00b f8bc
000001a0: ae24 a6be 4cae f9be 3fe6 b2bd 215a ecbe
000001b0: f45b 9d3d ae3b 97be 71c4 a03c 90aa 7abd
000001c0: 33b4 b13c 1699 2abe 673c 04be 94b2 003e
000001d0: 05f4 ddbd 092d f73c 0545 6fbe 4e5a a2bd
000001e0: ac2e 91be 9144 043e aea5 80be a760 443c
000001f0: cc67 85be 66ff e7be 80d4 16bd 2dca 6dbe
00000200: b4cd 8ebe ffdf c23d bd93 b8be 7fc0 49bd
00000210: 3619 2a3e 4979 8abe ac36 18be 8fa0 9abe
00000220: 11e9 9bbd c8c9 1bbd 099a d3be 3e80 1bbe
00000230: d9a3 943d 2d6a a1be 7f11 7fbd 1ae9 313e
00000240: c9de c2bd 32a3 76bd f713 143e 204f 083d
00000250: 5f7f 15be 3199 62be 6f87 12be 125d 083e
00000260: 1b1b cd3c 0006 f2be 4adc 53be 504c 293e
00000270: 9372 6f3e ce55 e6be 1bf3 6c3d 04fa 273e
00000280: d935 82be 1e9e fdbb e6af 20be 5803 81bd
00000290: 438d 60be cbcd 85be 8334 063e 0aed 97bd
000002a0: 6f7a 23be 5fb4 7ebe 03a3 97be c619 82be
000002b0: 7842 01be 4074 fc3d be4f 4e3e 3fb6 eebd
000002c0: 3b55 c3bd 8426 9cbe c7a3 16be 1140 88be
000002d0: 1b1b a2be 89a0 a83d 0636 bfbd 07d5 b5bd
000002e0: e957 f33c cd5e 11be 917f 863b 8e9d 15be
000002f0: 29e4 c2be ec3b fdbc cffd 61be 0bad a73d
00000300: 86e1 d3be 0094 003e 43f1 003e 2513 07bf
00000310: fc05 f73d a93c b9bb 390b 00be bbfb 08be
00000320: 3fd8 563e ad4c 043e 840d aabd 6d9c 14bf
00000330: 4636 18bd cff1 46be 5df2 99be b901 a3be
00000340: 4835 cdbe a2f6 c8be ec2b 84be b612 07be
00000350: 243f 8bbe 0e79 b9bd 2c3e 9cbe d84e 55be
00000360: eb77 84bd 9a5c cdbe 5086 043e 8512 83be
00000370: 058c 1c3c f1d7 613e 44ba 673d 371c e9be
00000380: 8385 893d 9e0b 893d 7535 95be 92ce 18be
00000390: 5e5d 47be b773 41be 979a 3d3e 6854 b6be
000003a0: f836 bfbe 2533 4d3a e745 423d dba9 983e
000003b0: cb9f 8fbe df52 cabc 1254 9bbd b224 23be
000003c0: f145 ecbd e881 07bd c91c 1dbf 467a 6cbe
000003d0: 368d dfbe e4df 8cbe 68d1 c5be f907 b2bd
000003e0: 988c bcbe 304a 053d 6fc1 8c3b ff45 c8bd
000003f0: 09c9 fa3c c460 223d ba83 da3d ad60 d1bd

dense_3/kernel/transpose f4 [1, 100]
0.2083632 -0.120876454 0.091326974 -0.20781001 -0.06758092 -0.21141705 -0.21682039 0.031442415
0.1111678 -0.020097384 0.12580384 0.01789879 -0.14566772 -0.21663271 -0.1931247 0.10413199
0.07267071 -0.22938412 0.048704527 0.047407594 -0.017470496 0.0068148538 0.063444324 0.07113611
0.0040579904 0.023179911 0.12203205 0.23616578 0.2883739 0.049985506 -0.030033788 -0.036254052
0.01633355 0.017646283 0.10329002 -0.055106524 -0.18165462 -0.069306016 0.028120374 -0.08228318
-0.13369106 -0.105454236 0.041823067 0.013474343 0.05036937 0.059649386 0.0615658 0.09851501
0.11963183 -0.24106446 0.07976389 -0.08366377 -0.25682056 -0.24088915 -0.19175188 -0.24904251
-0.002247098 -0.2659535 0.06124164 0.013852841 -0.028369585 -0.14702427 0.06358412 0.17676125
0.11788794 -0.048343804 0.10258452 0.05855661 0.28566316 0.08857433 0.017670617 -0.14102586
0.1239156 -0.17787409 -0.12975961 0.002017253 0.10569224 -0.22675748 -0.019778453 0.031915795
0.010212655 0.13157225 0.061021175 0.06768148 -0.07595582 -0.03307872 0.13606153 -0.13416597
0.12435098 0.15487249 0.1939089 0.11986011 -0.10634394 0.09270308 0.00831031 0.090290405
-0.20897715 0.16076927 0.06409379 -0.2728332
00000000: 2a5d 553e 138e f7bd a309 bb3d 26cc 54be
00000010: de67 8abd b67d 58be 2a06 5ebe c3c9 003d
00000020: f2ab e33d 45a3 a4bc b9d2 003e 7ca0 923c
00000030: eb29 15be f7d4 5dbe 7bc2 45be 2743 d53d
00000040: 62d4 943d ace3 6abe 667e 473d 772e 423d
00000050: 491e 8fbc 234f df3b 19ef 813d cfaf 913d
00000060: e4f8 843b cce3 bd3c f0eb f93d 71d5 713e
00000070: bea5 933e 9abd 4c3d 6b09 f6bc 217f 14bd
00000080: f0cd 853c f08e 903c b889 d33d 61b7 61bd
00000090: ab03 3abe 50f0 8dbd b35c e63c 1584 a8bd
000000a0: 4fe6 08be 64f8 d7bd aa4e 2b3d 7ec3 5c3c
000000b0: 1d50 4e3d ea52 743d 6c2c 7c3d 3dc2 c93d
000000c0: 8801 f53d 9ad9 76be 405b a33d e957 abbd
000000d0: fc7d 83be a5ab 76be 9b5a 44be 0005 7fbe
000000e0: 0c44 13bb 0f2b 88be 84d8 7a3d 07f7 623c
000000f0: 5567 e8bc 888d 16be 6438 823d e700 353e
00000100: 3b6f f13d 2704 46bd d517 d23d 0ed9 6f3d
00000110: 7142 923e 7566 b53d f8c1 903c 1569 10be
00000120: 76c7 fd3d a024 36be b4df 04be e433 043b
00000130: 2c75 d83d 1d33 68be 6c06 a2bc 23ba 023d
00000140: fb52 273c e0ba 063e 57f1 793d 969c 8a3d
00000150: ba8e 9bbd 8d7d 07bd b753 0b3e ce62 09be
00000160: baab fe3d e596 1e3e 0e90 463e 3879 f53d
00000170: daca d9bd 1ddb bd3d f727 083c 2dea b83d
00000180: 1bfe 55be b3a0 243e 9b43 833d cbb0 8bbe
